…
| Index | Name               |
+-------+--------------------+
|   0   | terrain_levels     |
|   1   | lin_vel_cmd_levels |
+-------+--------------------+

/home/fatu08/IsaacLab/source/isaaclab/isaaclab/envs/mdp/events.py:544: UserWarning: To copy construct from a tensor, it is recommended to use sourceTensor.detach().clone() or sourceTensor.detach().clone().requires_grad_(True), rather than torch.tensor(sourceTensor).
  actuator_joint_indices = torch.tensor(actuator.joint_indices, device=asset.device)
[INFO]: Completed setting up the environment...
Actor MLP: MLP(
  (network): Sequential(
    (0): Linear(in_features=77, out_features=512, bias=True)
    (1): ELU(alpha=1.0)
    (2): Linear(in_features=512, out_features=256, bias=True)
    (3): ELU(alpha=1.0)
    (4): Linear(in_features=256, out_features=128, bias=True)
    (5): ELU(alpha=1.0)
    (6): Linear(in_features=128, out_features=12, bias=True)
  )
)
Critic MLP: MLP(
  (network): Sequential(
    (0): Linear(in_features=279, out_features=512, bias=True)
    (1): ELU(alpha=1.0)
    (2): Linear(in_features=512, out_features=256, bias=True)
    (3): ELU(alpha=1.0)
    (4): Linear(in_features=256, out_features=128, bias=True)
    (5): ELU(alpha=1.0)
    (6): Linear(in_features=128, out_features=1, bias=True)
  )
)
Teacher Encoder: Sequential(
  (0): MLP(
    (network): Sequential(
      (0): Linear(in_features=247, out_features=512, bias=True)
      (1): ELU(alpha=1.0)
      (2): Linear(in_features=512, out_features=256, bias=True)
      (3): ELU(alpha=1.0)
      (4): Linear(in_features=256, out_features=32, bias=True)
    )
  )
  (1): L2Norm()
)
Student MoE Encoder: StudentMoEEncoder(
  (norm_layer): L2Norm()
  (moe): MoE(
    (experts): Experts(
      (backbone): MLP(
        (network): Sequential(
          (0): Linear(in_features=225, out_features=512, bias=True)
          (1): ELU(alpha=1.0)
          (2): Linear(in_features=512, out_features=256, bias=True)
          (3): ELU(alpha=1.0)
          (4): Linear(in_features=256, out_features=2048, bias=True)
          (5): ELU(alpha=1.0)
        )
      )
      (experts): Conv1d(2048, 256, kernel_size=(1,), stride=(1,), groups=8)
    )
    (gating_network): Sequential(
      (0): MLP(
        (network): Sequential(
          (0): Linear(in_features=225, out_features=512, bias=True)
          (1): ELU(alpha=1.0)
          (2): Linear(in_features=512, out_features=256, bias=True)
          (3): ELU(alpha=1.0)
          (4): Linear(in_features=256, out_features=8, bias=True)
        )
      )
      (1): Softmax(dim=-1)
    )
  )
)
Error executing job with overrides: []
Traceback (most recent call last):
  File "/home/fatu08/IsaacLab/source/isaaclab_tasks/isaaclab_tasks/utils/hydra.py", line 101, in hydra_main
    func(env_cfg, agent_cfg, *args, **kwargs)
  File "/home/fatu08/vbot_mujoco (moe+cts)/vbot_rl_lab/scripts/rsl_rl/train_moe_cts.py", line 131, in main
…
